…
vation_space': 'Box(0.0, 1.0, (84, 96, 4), float32)', 'action_space': 'Discrete(5)', 'n_envs': 8, 'vf_coef': 0.5, 'max_grad_norm': 0.5, 'rollout_buffer_class': "<class 'stable_baselines3.common.buffers.RolloutBuffer'>", 'rollout_buffer_kwargs': '{}', 'clip_range_vf': 'None', 'normalize_advantage': 'True', 'target_kl': 'None', 'lr_schedule': '<function get_schedule_fn.<locals>.<lambda> at 0x7f1c832ecb80>', 'rollout_buffer': '<stable_baselines3.common.buffers.RolloutBuffer object at 0x7f1c9c59d570>', 'policy': 'ActorCriticCnnPolicy(\n  (features_extractor): CNN(\n    (cnn): Sequential(\n      (0): Conv2d(84, 32, kernel_size=(5, 5), stride=(2, 2), padding=(1, 1))\n      (1): ReLU()\n      (2): Conv2d(32, 64, kernel_size=(3, 3), stride=(2, 2), padding=(1, 1))\n      (3): ReLU()\n      (4): Conv2d(64, 64, kernel_size=(3, 3), stride=(2, 2), padding=(1, 1))\n      (5): ReLU()\n      (6): Flatten(start_dim=1, end_dim=-1)\n    )\n    (linear): Sequential(\n      (0): Linear(in_features=768, out_features=256, bias=True)\n      (1): ReLU()\n    )\n  )\n  (pi_features_extractor): CNN(\n    (cnn): Sequential(\n      (0): Conv2d(84, 32, kernel_size=(5, 5), stride=(2, 2), padding=(1, 1))\n      (1): ReLU()\n      (2): Conv2d(32, 64, kernel_size=(3, 3), stride=(2, 2), padding=(1, 1))\n      (3): ReLU()\n      (4): Conv2d(64, 64, kernel_size=(3, 3), stride=(2, 2), padding=(1, 1))\n      (5): ReLU()\n      (6): Flatten(start_dim=1, end_dim=-1)\n    )\n    (linear): Sequential(\n      (0): Linear(in_features=768, out_features=256, bias=True)\n      (1): ReLU()\n    )\n  )\n  (vf_features_extractor): CNN(\n    (cnn): Sequential(\n      (0): Conv2d(84, 32, kernel_size=(5, 5), stride=(2, 2), padding=(1, 1))\n      (1): ReLU()\n      (2): Conv2d(32, 64, kernel_size=(3, 3), stride=(2, 2), padding=(1, 1))\n      (3): ReLU()\n      (4): Conv2d(64, 64, kernel_size=(3, 3), stride=(2, 2), padding=(1, 1))\n      (5): ReLU()\n      (6): Flatten(start_dim=1, end_dim=-1)\n    )\n    (linear): Sequential(\n      (0): Linear(in_features=768, out_features=256, bias=True)\n      (1): ReLU()\n    )\n  )\n  (mlp_extractor): MlpExtractor(\n    (policy_net): Sequential(\n      (0): Linear(in_features=256, out_features=64, bias=True)\n      (1): Tanh()\n      (2): Linear(in_features=64, out_features=64, bias=True)\n      (3): Tanh()\n    )\n    (value_net): Sequential(\n      (0): Linear(in_features=256, out_features=64, bias=True)\n      (1): Tanh()\n      (2): Linear(in_features=64, out_features=64, bias=True)\n      (3): Tanh()\n    )\n  )\n  (action_net): Linear(in_features=64, out_features=5, bias=True)\n  (value_net): Linear(in_features=64, out_features=1, bias=True)\n)', '_logger': '<stable_baselines3.common.logger.Logger object at 0x7f1bbf62c7f0>'}
2025-06-07 17:40:02,376 INFO    MainThread:1922011 [sb3.py:save_model():147] [no run ID] Saving model checkpoint to ./models/model.zip
2025-06-07 17:40:02,381 INFO    MainThread:1922011 [wandb_init.py:_post_run_cell_hook():613] [no run ID] resuming backend
2025-06-07 17:40:02,768 INFO    MainThread:1922011 [jupyter.py:_save_ipynb():413] [no run ID] looking for notebook: /home/vcivale/prova/Esercitazione_2/DLA_Lab2_DRL.ipynb
…
